SystemCode/proj1Django-master/results/FM/FM_parameter_0.24_withoutNor.npz (npz, 85876 bytes, 3 tensors)

arr_0 f8 []
000000 bb 2a 96 30 45 da e3 3f
       0.6203943203884913

arr_1 f8 [665, 1]
000000 66 45 e0 e5 69 b9 de 3f 60 a7 ea a9 2e b2 10 bf
       0.4800667519458187 -6.36902791294725e-05
000010 44 5a 44 c6 52 c1 ba bf 9e 6e 5c f3 e5 f6 a3 bf
       -0.10451238003256785 -0.03899305911747074
000020 7f dd bd 6b c5 24 d3 3f 20 49 b6 75 12 8b b0 bf
       0.29911933442732414 -0.06462207197026659
000030 3f e5 a5 56 72 a7 b2 3f 6f 06 a8 a4 fa cf 97 3f
       0.07286753287725832 0.02325431470854372
000040 cb b9 de 3f dd fe a2 3f c0 6c 36 a6 44 14 ac bf
       0.0371007099596344 -0.05484213379824032
000050 fe 5f e7 5e 7b d7 be bf 4d 27 5e bb 18 a8 a0 bf
       -0.12047549311625969 -0.03253247534946855
000060 9e 57 ea b9 b6 e1 b2 3f 84 27 98 7b 70 62 d2 3f
       0.07375661887121374 0.2872582632995704
000070 7c 08 02 98 27 b5 bd bf 43 df e1 7f 54 31 c2 3f
       -0.11604545079356571 0.14213043445828974
000080 cd 97 38 aa b0 27 c1 3f 92 c6 66 a5 9a aa 7a 3f
       0.1340237456471968 0.0065103569854031585
000090 6d 6c 63 10 9d 8b be bf cb 0e 7a e8 5d e3 cf bf
       -0.11931783342463272 -0.2491261849537437
0000a0 f9 b4 dd be b4 60 af 3f de c0 1d 2a 27 aa be 3f
       0.06128468351276157 0.11978382852771882
0000b0 7e f8 b6 76 89 01 ad bf 23 0e 81 b4 58 86 69 bf
       -0.05665235113291177 -0.0031158192178126916
0000c0 eb 9e 61 b9 d8 b7 98 bf 57 a5 7f 7f 62 9e b3 3f
       -0.02413881904104091 0.07663550961264796
0000d0 36 e3 72 51 9c 9e a6 3f 00 00 00 00 00 00 00 00
       0.044178852980115854 0.0
0000e0 87 ba c0 aa a2 de 9a bf 29 b0 21 96 18 69 bf 3f
       -0.026239911720205924 0.12269738831827283
0000f0 6d 63 72 24 76 71 c5 bf dd 95 90 8c dd 8e b6 bf
       -0.1675250699961696 -0.08811745340116013
000100 0f 33 24 23 6d a2 a4 bf 16 30 d8 16 3c 3e c3 bf
       -0.040301714458200626 -0.15033675303891475
000110 0c ce 8a 23 78 e2 9d bf 22 d5 98 c9 79 85 bf 3f
       -0.029184224290203217 0.12313042804529009
000120 1d 52 ec 88 4d fc 9a 3f 77 d5 d7 20 06 8e b0 3f
       0.02635308407032443 0.06466711332162399
000130 1a 40 83 70 ff 49 cb bf aa 20 79 15 5e 53 c8 3f
       -0.2131957339647677 0.19004417465680962
000140 18 a1 0f d6 97 f9 c0 bf 91 60 84 55 f5 10 ba bf
       -0.13261697723579213 -0.10182126367397105
000150 99 9e 84 f4 e8 f1 a8 bf 84 6a 8e a7 da 3e a6 bf
       -0.0487206266864721 -0.043448288873340096
000160 00 00 00 00 00 00 00 00 89 08 38 84 3c fe 9c bf
       0.0 -0.028313584871292128
000170 95 d5 d9 bb 2e a5 b7 bf b3 f7 97 40 d5 27 8d 3f
       -0.09236423574642168 0.014236131700268695
000180 46 32 e6 3a 0b 70 b3 bf b9 7b 1f 0e b9 63 a3 3f
       -0.07592840373963225 0.03787020013236692
000190 7d 31 cd 56 bc 4a a9 3f a2 7d a2 11 41 d6 b8 3f
       0.04939831313695018 0.09701925926719082
0001a0 ae ed a1 9d 11 70 a0 bf d3 ac 34 8b 2f 0a a6 bf
       -0.032105017177822645 -0.043046460860148315
0001b0 cf 9e 2b 6a d0 53 ac 3f b8 49 63 f6 d1 b2 b2 3f
       0.05532695098901074 0.07304107919052327
0001c0 85 94 56 9d 7a dc bc bf 3c 78 0b 37 ed 41 c5 bf
       -0.11273924199356784 -0.16607442081198254
0001d0 14 72 86 bc 22 d9 b1 bf 00 00 00 00 00 00 00 00
       -0.06971947767892345 0.0
0001e0 f8 e0 25 d8 eb 19 be bf 56 38 e9 fc bb 64 a4 3f
       -0.1175830271439543 0.039831041930128805
0001f0 2c d1 ed a7 4e 73 9b 3f 1a 40 16 48 fc 81 b4 bf
       0.02680704975087271 -0.08010842094358886
000200 32 d3 a2 d9 4e 4d bf 3f 40 40 66 95 65 3e aa bf
       0.12227337659244311 -0.05125729988787997
000210 d3 10 fe 7f 97 5d cb bf b8 b4 72 77 97 91 93 3f
       -0.2137936949694735 0.019110075631648654
000220 11 66 ec 17 d9 04 a0 3f 5a 76 c2 ab 99 9d c3 3f
       0.03128698746713721 0.15324707876873128
000230 fd e4 2b ed 5e ef b8 bf ca de 4e b1 b3 13 b9 3f
       -0.09740250864333073 0.09795687750635831
000240 20 4b ab 08 ed cf a1 bf ef de 73 37 1a 02 d3 bf
       -0.034789473827592454 -0.2970033208398339
000250 21 62 a0 0c 41 3f c8 3f 86 d7 14 52 7d a3 bf 3f
       0.1894303619053668 0.12358840230885279
000260 03 cc e3 3b ed 22 aa bf d5 1a 59 81 97 67 c6 bf
       -0.05104771953656242 -0.17503637138198394
000270 61 ae b4 49 29 92 bd bf f2 9b 54 b4 61 e7 d6 bf
       -0.11551149415452634 -0.3578724156417926
000280 c4 59 56 6a ba 82 ae bf 64 ca 1c b5 a6 0e 99 3f
       -0.05959112690031845 0.024469952396609776
000290 39 e1 48 e0 21 73 80 3f 21 04 33 c0 e9 ab 95 bf
       0.00803209748947663 -0.02116360889045066
0002a0 e4 d6 6d 5a f6 5d a6 bf 2d ee 83 e9 6f d9 a7 bf
       -0.04368562559004177 -0.04658078885583126
0002b0 c1 3a 4c 81 7f 12 a6 bf 78 76 e6 52 44 77 b2 bf
       -0.04310987904874742 -0.07213236831599967
0002c0 80 95 88 44 05 96 d3 3f c0 be 5c ca e0 d5 ca 3f
       0.3060315293572202 0.2096520412537668
0002d0 90 17 11 e3 1e e9 88 bf 92 01 77 92 78 90 b9 3f
       -0.012163392357375874 0.09986070228388247
0002e0 0b cf 13 91 63 c4 ab bf 13 4e 08 0c b4 47 95 bf
       -0.05423270364727103 -0.020781338915254532
0002f0 62 5a 6e de 35 b9 c1 3f 4b 8f d5 74 50 6a 9f 3f
       0.13846467362300802 0.030678994303698286
000300 21 ac b1 c3 30 3a 7f 3f f7 5f 51 13 96 85 b6 3f
       0.007623854147008864 0.08797586413982104
000310 35 1b d5 cb a0 4b b2 bf ac 76 0f 5b 95 b7 b5 3f
       -0.07146649338129125 0.08483251069216163
000320 01 19 5a bb 77 c3 c3 bf ed e4 e4 48 d7 4d 9f 3f
       -0.15440270088237898 0.030570377182105913
000330 3d 8b 18 6f 95 84 b0 3f 1f 87 bc 58 de f1 b6 3f
       0.06452306711484553 0.08962812105576433
000340 2c b6 11 02 39 26 c1 bf 0f a0 fa bd df 20 9e bf
       -0.1339789638617942 -0.02942227932967972
000350 8a a6 5e 04 dc ac ba bf 68 eb 1f b2 26 03 cd bf
       -0.10420012575800733 -0.2266586656331484
000360 27 1e 17 33 96 8e b9 bf 5f 26 f4 4d 2b 3b b0 bf
       -0.09983195063897964 -0.06340284970442543
000370 00 00 00 00 00 00 00 00 82 31 03 4d d6 1e a0 3f
       0.0 0.03148526849836043
000380 07 87 cd 07 f9 f7 c0 3f e0 db 89 6f 89 6a b2 3f
       0.1325675285434544 0.0719381234465426
000390 27 d2 ea 21 76 16 b6 bf 99 7d e4 2f d5 c7 72 3f
       -0.08628023460443811 0.00458510662272662
0003a0 60 6b a2 00 cb 45 b0 bf b5 e0 05 5d 42 6d b5 bf
       -0.06356495633592152 -0.08369841357296333
0003b0 1e 9e 86 bc b7 c3 a9 bf a6 be e6 f0 a9 c9 a0 bf
       -0.05032133270588822 -0.03278857293787256
0003c0 3a 8d 16 14 f2 d9 be bf c1 0f b3 67 b9 43 bc 3f
       -0.12051308622772164 0.11040838987088276
0003d0 8b 48 7d 96 6a bb ae 3f 5a 20 f2 e6 01 ab b2 bf
       0.0600236233427874 -0.07292186630559297
0003e0 72 1d e2 3d 6d d9 ad 3f a8 b1 ef de 28 d8 b5 3f
       0.05829945927058135 0.0853295845296943
0003f0 d6 12 94 b5 29 ab c4 3f 72 4b 0a b0 24 3a a7 3f
       0.16147347799428385 0.04536547326019659
000400 9d 56 9c 65 87 74 b9 bf 3b 51 23 b0 65 a8 aa 3f
       -0.09943433981637857 0.05206601882096825
000410 dc d3 54 92 f2 f5 d0 bf 1b 66 ad c4 37 91 b7 3f
       -0.2650114468590894 0.09205959846203664
000420 c4 94 71 7b 82 7d c9 bf 40 6b 15 db 35 ee b2 bf
       -0.1991427519562078 -0.07394730185243947
000430 02 bc cc f3 22 50 94 3f c6 54 1b 1f f3 ee b6 bf
       0.019836946611743407 -0.0895835829681629
000440 77 cf 58 48 af bc c8 3f 90 02 06 da a1 97 93 3f
       0.19325820000232927 0.01913311856469818
000450 57 9f 00 df 52 60 c2 bf e0 4c 7d 0b 7b 88 a4 bf
       -0.1435645665053424 -0.0401037646794522
000460 54 27 30 37 c5 9f 9a bf c9 28 60 e0 4a d3 b8 3f
       -0.02600010060635978 0.09697406747742145
000470 55 c3 14 47 e3 44 c1 3f 7e 9c d6 d4 9e ae 87 bf
       0.13491478892094713 -0.011563530798254226
000480 b8 ad b1 61 3b 05 c8 3f a1 7e 17 43 da 3a c1 3f
       0.18765966673104884 0.13460853839841483
000490 36 53 34 4b 67 cc c2 3f d4 a5 1b 14 5c 56 c9 3f
       0.14686289951409898 0.1979479883369054
0004a0 c6 6d 39 a1 d6 bb bd 3f 74 e7 6d 94 83 ad c0 3f
       0.11614743648663425 0.1302952265503411
0004b0 25 50 83 46 8a ef a1 bf 42 bc ba 2f b2 ac bd 3f
       -0.03503067122224505 0.11591638245839511
0004c0 dc 0a 82 07 e6 b0 ce 3f bf 23 0f 7c e4 23 c8 3f
       0.23977351538277147 0.18859535272193104
0004d0 31 0a a0 33 34 7f 82 bf 2f 98 55 57 7b 96 af bf
       -0.009031684709048 -0.06169496003239804
0004e0 92 59 54 f4 65 ff cc 3f e7 f2 52 58 4a e6 ac bf
       0.22654413633490528 -0.056444476396313274
0004f0 db 09 f3 05 00 11 a7 3f fe e5 75 79 78 ae 9b bf
       0.04505157539962897 -0.027032740033495976
000500 bc 9b 6c 53 b1 a1 b5 3f b7 46 e2 5c 2c 76 c3 3f
       0.08449848448490987 0.15204386267992273
000510 77 4b 4c 1f c2 84 b2 bf 81 d2 fb 35 6a b5 b1 3f
       -0.07233823074447608 0.06917442148171384
000520 12 e8 6d be 1d b4 bf 3f 38 01 19 d2 f6 48 ad 3f
       0.12384210490373018 0.057197297236145805
000530 b4 ff 50 64 8b 40 a6 3f ca 5a 11 e5 b7 94 aa 3f
       0.04346118545117808 0.051915880882622625
000540 83 b1 ac 0b 62 51 c0 bf c4 f3 3d a9 59 a1 b3 3f
       -0.1274836117749026 0.0766807592571715
000550 1a c8 6c a9 b5 b8 b1 3f 2e 87 2a 90 dc c9 c3 3f
       0.06922469507551945 0.1545978263794096
000560 8a e2 b0 d8 cd 7d 9c bf 82 f6 03 b3 a8 64 c4 bf
       -0.027823654509321595 -0.15932186833372347
000570 7f 9b c9 19 13 b9 91 3f 1e 14 0f f9 ac 81 bb 3f
       0.017307566117235048 0.10744744377650803
000580 fd 8b 59 2a 1d 58 a2 bf 86 01 ce e1 bf c7 c7 3f
       -0.03582850591626394 0.18578337216969149
000590 8d 5e 70 d6 c8 65 b2 bf 7d 5b 84 da 67 a1 bd 3f
       -0.07186560855222464 0.11574410519493301
0005a0 0f 99 77 b8 19 a1 9a 3f fd 1b e7 b3 fb c2 ae bf
       0.02600517452619849 -0.060081353865420774
0005b0 a1 b7 88 06 44 ea ba 3f 3e 80 31 cb 8d 66 b9 3f
       0.10513711127779725 0.09922109804892984
0005c0 f2 03 ba 23 53 8f be bf e5 67 69 4a a5 46 92 3f
       -0.11937446233970642 0.017847616831524155
0005d0 d5 be 11 e1 51 bd aa 3f 49 cc 11 56 f6 e8 bc bf
       0.052225645756036755 -0.11292972184473728
0005e0 de 38 8c 59 37 5b d1 3f 84 bf 2f 8d a7 61 ab bf
       0.2711923956384349 -0.0534794196936437
0005f0 a9 76 29 47 92 d7 90 bf 73 04 ce 06 b3 c7 b2 3f
       -0.016447339623815314 0.07335966983920787
000600 5d 00 03 cb 4e 53 a0 bf 13 34 61 17 83 27 d1 3f
       -0.03188558796091521 0.2680366257016555
000610 f0 2a 8d a7 fe 05 ba 3f 6c ae bb 15 dc d9 c0 bf
       0.10165397253619424 -0.13164855061710357
000620 1d 5a a4 e9 16 16 a5 bf 00 00 00 00 00 00 00 00
       -0.041184154530288654 0.0
000630 58 73 b8 49 cc 92 c0 3f 29 59 1d 6f 49 f8 bc bf
       0.12947991943010595 -0.11316355669746216
000640 b1 17 39 dd f4 63 a2 bf 81 8f 10 ff c4 0c b9 3f
       -0.035918857579005155 0.09785109736600185
000650 1a a2 68 1d d9 e4 7e bf 81 28 49 67 4a fd c0 bf
       -0.007542465310088642 -0.13272981684923837
000660 1b bf f1 1a 93 02 b5 bf 16 4c 17 ee d3 b0 b8 3f
       -0.08207053573437088 0.09644817888992949
000670 a2 1f e2 32 2e 99 b3 3f e6 a8 1d e8 e2 68 ab bf
       0.07655609838741254 -0.05353459437795198
000680 ee d0 9b 8a ac 01 be 3f 7e 14 3a bb 4e 80 b6 3f
       0.11721304306030664 0.08789531775444634
000690 20 1a dc 5b 7c f5 ca bf 46 91 63 5f 06 36 9b bf
       -0.21061663136806974 -0.026573276111677722
0006a0 89 d9 ce 93 8c 96 b7 3f 68 17 05 6b 20 fd c5 bf
       0.09214094742387692 -0.17178731179790963
0006b0 d9 3b df ff 44 9c a6 bf 3f bd ea d0 0b 71 b3 3f
       -0.0441609918922194 0.075943697457423
0006c0 c5 0e f6 f2 c3 d6 b6 bf 76 f3 a2 63 75 13 8e 3f
       -0.08921456033391013 0.014685551741757879
0006d0 95 70 a0 06 15 1d a5 3f cd e8 24 65 93 53 b8 3f
       0.041237504061627885 0.09502526492443338
0006e0 ef 1a c4 1b f0 f9 b2 bf af ef d3 73 fb 24 c9 bf
       -0.07412625005609262 -0.1964411082807351
0006f0 af aa d8 97 01 b2 9d bf 6b 6b de 59 29 54 c4 bf
       -0.028999352353063553 -0.15881840599180505
000700 7b 7a a4 26 c5 ef d3 3f 49 9e 35 3c ff f0 b0 3f
       0.3115094067924599 0.0661773225780219
000710 c4 59 f0 69 36 0c 99 bf ba b2 d6 e0 6c fc ba bf
       -0.024460649696345774 -0.10541420449471675
000720 17 e1 f3 db fc b5 c4 3f 59 cc d7 df 73 78 96 3f
       0.1618038248050275 0.021943865334787514
000730 2b 5e 87 b8 95 a6 b1 bf 84 63 6e 99 2b 85 98 bf
       -0.0689481330404013 -0.023945504417131072
000740 7d 19 ed e8 58 42 98 bf 31 52 42 a2 24 1b 8c 3f
       -0.02369059487980384 0.013723646356347792
000750 2b 1c 01 28 e7 97 be bf da fd d7 b5 39 76 bc 3f
       -0.11950535513561593 0.11117897691291692
000760 05 ed de 0e 1c 0b c2 bf ea 98 c2 a0 a0 13 ae 3f
       -0.14096403814424022 0.05874349558261989
000770 7f 34 d3 87 e3 e4 ae 3f 24 84 90 e5 99 e8 aa 3f
       0.060340032892420396 0.05255585601140236
000780 a8 85 6b 4f 3a 43 c2 3f 26 61 a9 16 1e 00 6c 3f
       0.1426766288559922 0.003418024794239599
000790 49 18 3f 62 06 12 c0 bf d4 1f d9 cd de d3 71 3f
       -0.12555007741156235 0.004352445915692688
0007a0 09 55 db 11 c4 79 86 bf 01 34 a4 7c 28 24 92 3f
       -0.010974437518067608 0.01771605740309568
0007b0 6a 0e 61 13 7d fa 95 3f 46 97 c7 9a 13 2b c1 3f
       0.021463350589569087 0.13412709291076846
0007c0 cf 3c be c7 ee 06 81 3f a7 04 98 88 71 f4 99 bf
       0.008314004393268707 -0.02534654041483422
0007d0 29 5e d5 e0 dc ab a6 bf 27 24 79 c1 4e d6 d2 bf
       -0.04427995914982958 -0.294330300272636
0007e0 9f 46 25 ec d5 45 c3 bf 29 bd 22 f8 51 bc bd bf
       -0.15056871443316752 -0.11615478809357128
0007f0 91 c8 54 0a 31 77 af bf 36 e6 22 c2 8e ff ab 3f
       -0.06145623446572402 0.054684125135690584

arr_2 f8 [665, 15]
000000 c6 6b 09 42 ea 12 bd bf c6 6b 09 42 ea 12 bd bf
       -0.11356987106539326 -0.11356987106539326
000010 c6 6b 09 42 ea 12 bd bf c6 6b 09 42 ea 12 bd bf
       -0.11356987106539326 -0.11356987106539326
000020 c6 6b 09 42 ea 12 bd bf c6 6b 09 42 ea 12 bd bf
       -0.11356987106539326 -0.11356987106539326
000030 c6 6b 09 42 ea 12 bd bf c6 6b 09 42 ea 12 bd bf
       -0.11356987106539326 -0.11356987106539326
000040 c6 6b 09 42 ea 12 bd bf c6 6b 09 42 ea 12 bd bf
       -0.11356987106539326 -0.11356987106539326
000050 c6 6b 09 42 ea 12 bd bf c6 6b 09 42 ea 12 bd bf
       -0.11356987106539326 -0.11356987106539326
000060 c6 6b 09 42 ea 12 bd bf c6 6b 09 42 ea 12 bd bf
       -0.11356987106539326 -0.11356987106539326
000070 c6 6b 09 42 ea 12 bd bf 11 49 cd 41 6f 30 52 3f
       -0.11356987106539326 0.001110180520488561
000080 11 49 cd 41 6f 30 52 3f 11 49 cd 41 6f 30 52 3f
       0.001110180520488561 0.001110180520488561
000090 11 49 cd 41 6f 30 52 3f 11 49 cd 41 6f 30 52 3f
       0.001110180520488561 0.001110180520488561
0000a0 11 49 cd 41 6f 30 52 3f 11 49 cd 41 6f 30 52 3f
       0.001110180520488561 0.001110180520488561
0000b0 11 49 cd 41 6f 30 52 3f 11 49 cd 41 6f 30 52 3f
       0.001110180520488561 0.001110180520488561
0000c0 11 49 cd 41 6f 30 52 3f 11 49 cd 41 6f 30 52 3f
       0.001110180520488561 0.001110180520488561
0000d0 11 49 cd 41 6f 30 52 3f 11 49 cd 41 6f 30 52 3f
       0.001110180520488561 0.001110180520488561
0000e0 11 49 cd 41 6f 30 52 3f 11 49 cd 41 6f 30 52 3f
       0.001110180520488561 0.001110180520488561
0000f0 fe e9 68 25 ca 62 83 bf fe e9 68 25 ca 62 83 bf
       -0.009465770022065275 -0.009465770022065275
000100 fe e9 68 25 ca 62 83 bf fe e9 68 25 ca 62 83 bf
       -0.009465770022065275 -0.009465770022065275
000110 fe e9 68 25 ca 62 83 bf fe e9 68 25 ca 62 83 bf
       -0.009465770022065275 -0.009465770022065275
000120 fe e9 68 25 ca 62 83 bf fe e9 68 25 ca 62 83 bf
       -0.009465770022065275 -0.009465770022065275
000130 fe e9 68 25 ca 62 83 bf fe e9 68 25 ca 62 83 bf
       -0.009465770022065275 -0.009465770022065275
000140 fe e9 68 25 ca 62 83 bf fe e9 68 25 ca 62 83 bf
       -0.009465770022065275 -0.009465770022065275
000150 fe e9 68 25 ca 62 83 bf fe e9 68 25 ca 62 83 bf
       -0.009465770022065275 -0.009465770022065275
000160 fe e9 68 25 ca 62 83 bf 13 40 ae a7 ea 4f 4e bf
       -0.009465770022065275 -0.0009250541473750949
000170 13 40 ae a7 ea 4f 4e bf 13 40 ae a7 ea 4f 4e bf
       -0.0009250541473750949 -0.0009250541473750949
000180 13 40 ae a7 ea 4f 4e bf 13 40 ae a7 ea 4f 4e bf
       -0.0009250541473750949 -0.0009250541473750949
000190 13 40 ae a7 ea 4f 4e bf 13 40 ae a7 ea 4f 4e bf
       -0.0009250541473750949 -0.0009250541473750949
0001a0 13 40 ae a7 ea 4f 4e bf 13 40 ae a7 ea 4f 4e bf
       -0.0009250541473750949 -0.0009250541473750949
0001b0 13 40 ae a7 ea 4f 4e bf 13 40 ae a7 ea 4f 4e bf
       -0.0009250541473750949 -0.0009250541473750949
0001c0 13 40 ae a7 ea 4f 4e bf 13 40 ae a7 ea 4f 4e bf
       -0.0009250541473750949 -0.0009250541473750949
0001d0 13 40 ae a7 ea 4f 4e bf 13 40 ae a7 ea 4f 4e bf
       -0.0009250541473750949 -0.0009250541473750949
0001e0 21 e0 c0 e4 59 64 7f bf 21 e0 c0 e4 59 64 7f bf
       -0.007664061686277563 -0.007664061686277563
0001f0 21 e0 c0 e4 59 64 7f bf 21 e0 c0 e4 59 64 7f bf
       -0.007664061686277563 -0.007664061686277563
000200 21 e0 c0 e4 59 64 7f bf 21 e0 c0 e4 59 64 7f bf
       -0.007664061686277563 -0.007664061686277563
000210 21 e0 c0 e4 59 64 7f bf 21 e0 c0 e4 59 64 7f bf
       -0.007664061686277563 -0.007664061686277563
000220 21 e0 c0 e4 59 64 7f bf 21 e0 c0 e4 59 64 7f bf
       -0.007664061686277563 -0.007664061686277563
000230 21 e0 c0 e4 59 64 7f bf 21 e0 c0 e4 59 64 7f bf
       -0.007664061686277563 -0.007664061686277563
000240 21 e0 c0 e4 59 64 7f bf 21 e0 c0 e4 59 64 7f bf
       -0.007664061686277563 -0.007664061686277563
000250 21 e0 c0 e4 59 64 7f bf 48 8d 4e c2 fc e7 95 bf
       -0.007664061686277563 -0.02139277397112707
000260 48 8d 4e c2 fc e7 95 bf 48 8d 4e c2 fc e7 95 bf
       -0.02139277397112707 -0.02139277397112707
000270 48 8d 4e c2 fc e7 95 bf 48 8d 4e c2 fc e7 95 bf
       -0.02139277397112707 -0.02139277397112707
000280 48 8d 4e c2 fc e7 95 bf 48 8d 4e c2 fc e7 95 bf
       -0.02139277397112707 -0.02139277397112707
000290 48 8d 4e c2 fc e7 95 bf 48 8d 4e c2 fc e7 95 bf
       -0.02139277397112707 -0.02139277397112707
0002a0 48 8d 4e c2 fc e7 95 bf 48 8d 4e c2 fc e7 95 bf
       -0.02139277397112707 -0.02139277397112707
0002b0 48 8d 4e c2 fc e7 95 bf 48 8d 4e c2 fc e7 95 bf
       -0.02139277397112707 -0.02139277397112707
0002c0 48 8d 4e c2 fc e7 95 bf 48 8d 4e c2 fc e7 95 bf
       -0.02139277397112707 -0.02139277397112707
0002d0 4d 9e 66 a2 41 84 91 3f 4d 9e 66 a2 41 84 91 3f
       0.017106080567513882 0.017106080567513882
0002e0 4d 9e 66 a2 41 84 91 3f 4d 9e 66 a2 41 84 91 3f
       0.017106080567513882 0.017106080567513882
0002f0 4d 9e 66 a2 41 84 91 3f 4d 9e 66 a2 41 84 91 3f
       0.017106080567513882 0.017106080567513882
000300 4d 9e 66 a2 41 84 91 3f 4d 9e 66 a2 41 84 91 3f
       0.017106080567513882 0.017106080567513882
000310 4d 9e 66 a2 41 84 91 3f 4d 9e 66 a2 41 84 91 3f
       0.017106080567513882 0.017106080567513882
000320 4d 9e 66 a2 41 84 91 3f 4d 9e 66 a2 41 84 91 3f
       0.017106080567513882 0.017106080567513882
000330 4d 9e 66 a2 41 84 91 3f 4d 9e 66 a2 41 84 91 3f
       0.017106080567513882 0.017106080567513882
000340 4d 9e 66 a2 41 84 91 3f 89 0d 33 fb 1a 16 96 bf
       0.017106080567513882 -0.02156870039176576
000350 89 0d 33 fb 1a 16 96 bf 89 0d 33 fb 1a 16 96 bf
       -0.02156870039176576 -0.02156870039176576
000360 89 0d 33 fb 1a 16 96 bf 89 0d 33 fb 1a 16 96 bf
       -0.02156870039176576 -0.02156870039176576
000370 89 0d 33 fb 1a 16 96 bf 89 0d 33 fb 1a 16 96 bf
       -0.02156870039176576 -0.02156870039176576
000380 89 0d 33 fb 1a 16 96 bf 89 0d 33 fb 1a 16 96 bf
       -0.02156870039176576 -0.02156870039176576
000390 89 0d 33 fb 1a 16 96 bf 89 0d 33 fb 1a 16 96 bf
       -0.02156870039176576 -0.02156870039176576
0003a0 89 0d 33 fb 1a 16 96 bf 89 0d 33 fb 1a 16 96 bf
       -0.02156870039176576 -0.02156870039176576
0003b0 89 0d 33 fb 1a 16 96 bf 89 0d 33 fb 1a 16 96 bf
       -0.02156870039176576 -0.02156870039176576
0003c0 f2 3d 70 3a d4 5f 82 3f f2 3d 70 3a d4 5f 82 3f
       0.008971841843986337 0.008971841843986337
0003d0 f2 3d 70 3a d4 5f 82 3f f2 3d 70 3a d4 5f 82 3f
       0.008971841843986337 0.008971841843986337
0003e0 f2 3d 70 3a d4 5f 82 3f f2 3d 70 3a d4 5f 82 3f
       0.008971841843986337 0.008971841843986337
0003f0 f2 3d 70 3a d4 5f 82 3f f2 3d 70 3a d4 5f 82 3f
       0.008971841843986337 0.008971841843986337
000400 f2 3d 70 3a d4 5f 82 3f f2 3d 70 3a d4 5f 82 3f
       0.008971841843986337 0.008971841843986337
000410 f2 3d 70 3a d4 5f 82 3f f2 3d 70 3a d4 5f 82 3f
       0.008971841843986337 0.008971841843986337
000420 f2 3d 70 3a d4 5f 82 3f f2 3d 70 3a d4 5f 82 3f
       0.008971841843986337 0.008971841843986337
000430 f2 3d 70 3a d4 5f 82 3f 06 65 76 ef b6 d8 68 3f
       0.008971841843986337 0.0030330250699078824
000440 06 65 76 ef b6 d8 68 3f 06 65 76 ef b6 d8 68 3f
       0.0030330250699078824 0.0030330250699078824
000450 06 65 76 ef b6 d8 68 3f 06 65 76 ef b6 d8 68 3f
       0.0030330250699078824 0.0030330250699078824
000460 06 65 76 ef b6 d8 68 3f 06 65 76 ef b6 d8 68 3f
       0.0030330250699078824 0.0030330250699078824
000470 06 65 76 ef b6 d8 68 3f 06 65 76 ef b6 d8 68 3f
       0.0030330250699078824 0.0030330250699078824
000480 06 65 76 ef b6 d8 68 3f 06 65 76 ef b6 d8 68 3f
       0.0030330250699078824 0.0030330250699078824
000490 06 65 76 ef b6 d8 68 3f 06 65 76 ef b6 d8 68 3f
       0.0030330250699078824 0.0030330250699078824
0004a0 06 65 76 ef b6 d8 68 3f 06 65 76 ef b6 d8 68 3f
       0.0030330250699078824 0.0030330250699078824
0004b0 8c 22 a3 8a 95 88 c4 3f 8c 22 a3 8a 95 88 c4 3f
       0.16041821736714146 0.16041821736714146
0004c0 8c 22 a3 8a 95 88 c4 3f 8c 22 a3 8a 95 88 c4 3f
       0.16041821736714146 0.16041821736714146
0004d0 8c 22 a3 8a 95 88 c4 3f 8c 22 a3 8a 95 88 c4 3f
       0.16041821736714146 0.16041821736714146
0004e0 8c 22 a3 8a 95 88 c4 3f 8c 22 a3 8a 95 88 c4 3f
       0.16041821736714146 0.16041821736714146
0004f0 8c 22 a3 8a 95 88 c4 3f 8c 22 a3 8a 95 88 c4 3f
       0.16041821736714146 0.16041821736714146
000500 8c 22 a3 8a 95 88 c4 3f 8c 22 a3 8a 95 88 c4 3f
       0.16041821736714146 0.16041821736714146
000510 8c 22 a3 8a 95 88 c4 3f 8c 22 a3 8a 95 88 c4 3f
       0.16041821736714146 0.16041821736714146
000520 8c 22 a3 8a 95 88 c4 3f 6b be 58 e8 f3 f5 c2 3f
       0.16041821736714146 0.14813088269282856
000530 6b be 58 e8 f3 f5 c2 3f 6b be 58 e8 f3 f5 c2 3f
       0.14813088269282856 0.14813088269282856
000540 6b be 58 e8 f3 f5 c2 3f 6b be 58 e8 f3 f5 c2 3f
       0.14813088269282856 0.14813088269282856
000550 6b be 58 e8 f3 f5 c2 3f 6b be 58 e8 f3 f5 c2 3f
       0.14813088269282856 0.14813088269282856
000560 6b be 58 e8 f3 f5 c2 3f 6b be 58 e8 f3 f5 c2 3f
       0.14813088269282856 0.14813088269282856
000570 6b be 58 e8 f3 f5 c2 3f 6b be 58 e8 f3 f5 c2 3f
       0.14813088269282856 0.14813088269282856
000580 6b be 58 e8 f3 f5 c2 3f 6b be 58 e8 f3 f5 c2 3f
       0.14813088269282856 0.14813088269282856
000590 6b be 58 e8 f3 f5 c2 3f 6b be 58 e8 f3 f5 c2 3f
       0.14813088269282856 0.14813088269282856
0005a0 1a dc b1 42 3e c6 c0 3f 1a dc b1 42 3e c6 c0 3f
       0.13104990250187215 0.13104990250187215
0005b0 1a dc b1 42 3e c6 c0 3f 1a dc b1 42 3e c6 c0 3f
       0.13104990250187215 0.13104990250187215
0005c0 1a dc b1 42 3e c6 c0 3f 1a dc b1 42 3e c6 c0 3f
       0.13104990250187215 0.13104990250187215
0005d0 1a dc b1 42 3e c6 c0 3f 1a dc b1 42 3e c6 c0 3f
       0.13104990250187215 0.13104990250187215
0005e0 1a dc b1 42 3e c6 c0 3f 1a dc b1 42 3e c6 c0 3f
       0.13104990250187215 0.13104990250187215
0005f0 1a dc b1 42 3e c6 c0 3f 1a dc b1 42 3e c6 c0 3f
       0.13104990250187215 0.13104990250187215
000600 1a dc b1 42 3e c6 c0 3f 1a dc b1 42 3e c6 c0 3f
       0.13104990250187215 0.13104990250187215
000610 1a dc b1 42 3e c6 c0 3f 04 13 5f 50 7d e0 bd 3f
       0.13104990250187215 0.11670668804351797
000620 04 13 5f 50 7d e0 bd 3f 04 13 5f 50 7d e0 bd 3f
       0.11670668804351797 0.11670668804351797
000630 04 13 5f 50 7d e0 bd 3f 04 13 5f 50 7d e0 bd 3f
       0.11670668804351797 0.11670668804351797
000640 04 13 5f 50 7d e0 bd 3f 04 13 5f 50 7d e0 bd 3f
       0.11670668804351797 0.11670668804351797
000650 04 13 5f 50 7d e0 bd 3f 04 13 5f 50 7d e0 bd 3f
       0.11670668804351797 0.11670668804351797
000660 04 13 5f 50 7d e0 bd 3f 04 13 5f 50 7d e0 bd 3f
       0.11670668804351797 0.11670668804351797
000670 04 13 5f 50 7d e0 bd 3f 04 13 5f 50 7d e0 bd 3f
       0.11670668804351797 0.11670668804351797
000680 04 13 5f 50 7d e0 bd 3f 04 13 5f 50 7d e0 bd 3f
       0.11670668804351797 0.11670668804351797
000690 e3 73 00 31 9e 03 c2 3f e3 73 00 31 9e 03 c2 3f
       0.14073541062035053 0.14073541062035053
0006a0 e3 73 00 31 9e 03 c2 3f e3 73 00 31 9e 03 c2 3f
       0.14073541062035053 0.14073541062035053
0006b0 e3 73 00 31 9e 03 c2 3f e3 73 00 31 9e 03 c2 3f
       0.14073541062035053 0.14073541062035053
0006c0 e3 73 00 31 9e 03 c2 3f e3 73 00 31 9e 03 c2 3f
       0.14073541062035053 0.14073541062035053
0006d0 e3 73 00 31 9e 03 c2 3f e3 73 00 31 9e 03 c2 3f
       0.14073541062035053 0.14073541062035053
0006e0 e3 73 00 31 9e 03 c2 3f e3 73 00 31 9e 03 c2 3f
       0.14073541062035053 0.14073541062035053
0006f0 e3 73 00 31 9e 03 c2 3f e3 73 00 31 9e 03 c2 3f
       0.14073541062035053 0.14073541062035053
000700 e3 73 00 31 9e 03 c2 3f 8c 89 1f e6 12 a1 b9 3f
       0.14073541062035053 0.1001140415023995
000710 8c 89 1f e6 12 a1 b9 3f 8c 89 1f e6 12 a1 b9 3f
       0.1001140415023995 0.1001140415023995
000720 8c 89 1f e6 12 a1 b9 3f 8c 89 1f e6 12 a1 b9 3f
       0.1001140415023995 0.1001140415023995
000730 8c 89 1f e6 12 a1 b9 3f 8c 89 1f e6 12 a1 b9 3f
       0.1001140415023995 0.1001140415023995
000740 8c 89 1f e6 12 a1 b9 3f 8c 89 1f e6 12 a1 b9 3f
       0.1001140415023995 0.1001140415023995
000750 8c 89 1f e6 12 a1 b9 3f 8c 89 1f e6 12 a1 b9 3f
       0.1001140415023995 0.1001140415023995
000760 8c 89 1f e6 12 a1 b9 3f 8c 89 1f e6 12 a1 b9 3f
       0.1001140415023995 0.1001140415023995
000770 8c 89 1f e6 12 a1 b9 3f 8c 89 1f e6 12 a1 b9 3f
       0.1001140415023995 0.1001140415023995
000780 47 d6 72 50 fd 33 bc 3f 47 d6 72 50 fd 33 bc 3f
       0.11016829694821083 0.11016829694821083
000790 47 d6 72 50 fd 33 bc 3f 47 d6 72 50 fd 33 bc 3f
       0.11016829694821083 0.11016829694821083
0007a0 47 d6 72 50 fd 33 bc 3f 47 d6 72 50 fd 33 bc 3f
       0.11016829694821083 0.11016829694821083
0007b0 47 d6 72 50 fd 33 bc 3f 47 d6 72 50 fd 33 bc 3f
       0.11016829694821083 0.11016829694821083
0007c0 47 d6 72 50 fd 33 bc 3f 47 d6 72 50 fd 33 bc 3f
       0.11016829694821083 0.11016829694821083
0007d0 47 d6 72 50 fd 33 bc 3f 47 d6 72 50 fd 33 bc 3f
       0.11016829694821083 0.11016829694821083
0007e0 47 d6 72 50 fd 33 bc 3f 47 d6 72 50 fd 33 bc 3f
       0.11016829694821083 0.11016829694821083
0007f0 47 d6 72 50 fd 33 bc 3f a4 59 e7 0c 21 fa c4 3f
       0.11016829694821083 0.1638833344465641
